…
nsummary(model, (3, 256, 256))","metadata":{"trusted":true,"execution":{"iopub.status.busy":"2024-11-23T13:46:41.219870Z","iopub.execute_input":"2024-11-23T13:46:41.220239Z","iopub.status.idle":"2024-11-23T13:46:42.817517Z","shell.execute_reply.started":"2024-11-23T13:46:41.220207Z","shell.execute_reply":"2024-11-23T13:46:42.816704Z"}},"outputs":[{"name":"stdout","text":"----------------------------------------------------------------\n        Layer (type)               Output Shape         Param #\n================================================================\n            Conv2d-1         [-1, 64, 128, 128]           9,408\n       BatchNorm2d-2         [-1, 64, 128, 128]             128\n              ReLU-3         [-1, 64, 128, 128]               0\n         MaxPool2d-4           [-1, 64, 64, 64]               0\n            Conv2d-5           [-1, 64, 64, 64]          36,864\n       BatchNorm2d-6           [-1, 64, 64, 64]             128\n              ReLU-7           [-1, 64, 64, 64]               0\n            Conv2d-8           [-1, 64, 64, 64]          36,864\n       BatchNorm2d-9           [-1, 64, 64, 64]             128\n             ReLU-10           [-1, 64, 64, 64]               0\n       BasicBlock-11           [-1, 64, 64, 64]               0\n           Conv2d-12           [-1, 64, 64, 64]          36,864\n      BatchNorm2d-13           [-1, 64, 64, 64]             128\n             ReLU-14           [-1, 64, 64, 64]               0\n           Conv2d-15           [-1, 64, 64, 64]          36,864\n      BatchNorm2d-16           [-1, 64, 64, 64]             128\n             ReLU-17           [-1, 64, 64, 64]               0\n       BasicBlock-18           [-1, 64, 64, 64]               0\n           Conv2d-19           [-1, 64, 64, 64]          36,864\n      BatchNorm2d-20           [-1, 64, 64, 64]             128\n             ReLU-21           [-1, 64, 64, 64]               0\n           Conv2d-22           [-1, 64, 64, 64]          36,864\n      BatchNorm2d-23           [-1, 64, 64, 64]             128\n             ReLU-24           [-1, 64, 64, 64]               0\n       BasicBlock-25           [-1, 64, 64, 64]               0\n           Conv2d-26          [-1, 128, 32, 32]          73,728\n      BatchNorm2d-27          [-1, 128, 32, 32]             256\n             ReLU-28          [-1, 128, 32, 32]               0\n           Conv2d-29          [-1, 128, 32, 32]         147,456\n      BatchNorm2d-30          [-1, 128, 32, 32]             256\n           Conv2d-31          [-1, 128, 32, 32]           8,192\n      BatchNorm2d-32          [-1, 128, 32, 32]             256\n             ReLU-33          [-1, 128, 32, 32]               0\n       BasicBlock-34          [-1, 128, 32, 32]               0\n           Conv2d-35          [-1, 128, 32, 32]         147,456\n      BatchNorm2d-36          [-1, 128, 32, 32]             256\n             ReLU-37          [-1, 128, 32, 32]               0\n           Conv2d-38          [-1, 128, 32, 32]         147,456\n      BatchNorm2d-39          [-1, 128, 32, 32]             256\n             ReLU-40          [-1, 128, 32, 32]               0\n       BasicBlock-41          [-1, 128, 32, 32]               0\n           Conv2d-42          [-1, 128, 32, 32]         147,456\n      BatchNorm2d-43          [-1, 128, 32, 32]             256\n             ReLU-44          [-1, 128, 32, 32]               0\n           Conv2d-45          [-1, 128, 32, 32]         147,456\n      BatchNorm2d-46          [-1, 128, 32, 32]             256\n             ReLU-47          [-1, 128, 32, 32]               0\n       BasicBlock-48          [-1, 128, 32, 32]               0\n           Conv2d-49          [-1, 128, 32, 32]         147,456\n      BatchNorm2d-50          [-1, 128, 32, 32]             256\n             ReLU-51          [-1, 128, 32, 32]               0\n           Conv2d-52          [-1, 128, 32, 32]         147,456\n      BatchNorm2d-53          [-1, 128, 32, 32]             256\n             ReLU-54          [-1, 128, 32, 32]               0\n       BasicBlock-55          [-1, 128, 32, 32]               0\n           Conv2d-56          [-1, 256, 16, 16]         294,912\n      BatchNorm2d-57          [-1, 256, 16, 16]             512\n             ReLU-58          [-1, 256, 16, 16]               0\n           Conv2d-59          [-1, 256, 16, 16]         589,824\n      BatchNorm2d-60          [-1, 256, 16, 16]             512\n           Conv2d-61          [-1, 256, 16, 16]          32,768\n      BatchNorm2d-62          [-1, 256, 16, 16]             512\n             ReLU-63          [-1, 256, 16, 16]               0\n       BasicBlock-64          [-1, 256, 16, 16]               0\n           Conv2d-65          [-1, 256, 16, 16]         589,824\n      BatchNorm2d-66          [-1, 256, 16, 16]             512\n             ReLU-67          [-1, 256, 16, 16]               0\n           Conv2d-68          [-1, 256, 16, 16]         589,824\n      BatchNorm2d-69          [-1, 256, 16, 16]             512\n             ReLU-70          [-1, 256, 16, 16]               0\n       BasicBlock-71          [-1, 256, 16, 16]               0\n           Conv2d-72          [-1, 256, 16, 16]         589,824\n      BatchNorm2d-73          [-1, 256, 16, 16]             512\n             ReLU-74          [-1, 256, 16, 16]               0\n           Conv2d-75          [-1, 256, 16, 16]         589,824\n      BatchNorm2d-76          [-1, 256, 16, 16]             512\n             ReLU-77          [-1, 256, 16, 16]               0\n       BasicBlock-78          [-1, 256, 16, 16]               0\n           Conv2d-79          [-1, 256, 16, 16]         589,824\n      BatchNorm2d-80          [-1, 256, 16, 16]             512\n             ReLU-81          [-1, 256, 16, 16]               0\n           Conv2d-82          [-1, 256, 16, 16]         589,824\n      BatchNorm2d-83          [-1, 256, 16, 16]             512\n             ReLU-84          [-1, 256, 16, 16]               0\n       BasicBlock-85          [-1, 256, 16, 16]               0\n           Conv2d-86          [-1, 256, 16, 16]         589,824\n      BatchNorm2d-87          [-1, 256, 16, 16]             512\n             ReLU-88          [-1, 256, 16, 16]               0\n           Conv2d-89          [-1, 256, 16, 16]         589,824\n      BatchNorm2d-90          [-1, 256, 16, 16]             512\n             ReLU-91          [-1, 256, 16, 16]               0\n       BasicBlock-92          [-1, 256, 16, 16]               0\n           Conv2d-93          [-1, 256, 16, 16]         589,824\n      BatchNorm2d-94          [-1, 256, 16, 16]             512\n             ReLU-95          [-1, 256, 16, 16]               0\n           Conv2d-96          [-1, 256, 16, 16]         589,824\n      BatchNorm2d-97          [-1, 256, 16, 16]             512\n             ReLU-98          [-1, 256, 16, 16]               0\n       BasicBlock-99          [-1, 256, 16, 16]               0\n          Conv2d-100            [-1, 512, 8, 8]       1,179,648\n     BatchNorm2d-101            [-1, 512, 8, 8]           1,024\n            ReLU-102            [-1, 512, 8, 8]               0\n          Conv2d-103            [-1, 512, 8, 8]       2,359,296\n     BatchNorm2d-104            [-1, 512, 8, 8]           1,024\n          Conv2d-105            [-1, 512, 8, 8]         131,072\n     BatchNorm2d-106            [-1, 512, 8, 8]           1,024\n            ReLU-107            [-1, 512, 8, 8]               0\n      BasicBlock-108            [-1, 512, 8, 8]               0\n          Conv2d-109            [-1, 512, 8, 8]       2,359,296\n     BatchNorm2d-110            [-1, 512, 8, 8]           1,024\n            ReLU-111            [-1, 512, 8, 8]               0\n          Conv2d-112            [-1, 512, 8, 8]       2,359,296\n     BatchNorm2d-113            [-1, 512, 8, 8]           1,024\n            ReLU-114            [-1, 512, 8, 8]               0\n      BasicBlock-115            [-1, 512, 8, 8]               0\n          Conv2d-116            [-1, 512, 8, 8]       2,359,296\n     BatchNorm2d-117            [-1, 512, 8, 8]           1,024\n            ReLU-118            [-1, 512, 8, 8]               0\n          Conv2d-119            [-1, 512, 8, 8]       2,359,296\n     BatchNorm2d-120            [-1, 512, 8, 8]           1,024\n            ReLU-121            [-1, 512, 8, 8]               0\n      BasicBlock-122            [-1, 512, 8, 8]               0\n   ResNetEncoder-123  [[-1, 3, 256, 256], [-1, 64, 128, 128], [-1, 64, 64, 64], [-1, 128, 32, 32], [-1, 256, 16, 16], [-1, 512, 8, 8]]               0\n        Identity-124          [-1, 768, 16, 16]               0\n       Attention-125          [-1, 768, 16, 16]               0\n          Conv2d-126          [-1, 256, 16, 16]       1,769,472\n     BatchNorm2d-127          [-1, 256, 16, 16]             512\n            ReLU-128          [-1, 256, 16, 16]               0\n          Conv2d-129          [-1, 256, 16, 16]         589,824\n     BatchNorm2d-130          [-1, 256, 16, 16]             512\n            ReLU-131          [-1, 256, 16, 16]               0\n        Identity-132          [-1, 256, 16, 16]               0\n       Attention-133          [-1, 256, 16, 16]               0\n    DecoderBlock-134          [-1, 256, 16, 16]               0\n        Identity-135          [-1, 384, 32, 32]               0\n       Attention-136          [-1, 384, 32, 32]               0\n          Conv2d-137          [-1, 128, 32, 32]         442,368\n     BatchNorm2d-138          [-1, 128, 32, 32]             256\n            ReLU-139          [-1, 128, 32, 32]               0\n          Conv2d-140          [-1, 128, 32, 32]         147,456\n     BatchNorm2d-141          [-1, 128, 32, 32]             256\n            ReLU-142          [-1, 128, 32, 32]               0\n        Identity-143          [-1, 128, 32, 32]               0\n       Attention-144          [-1, 128, 32, 32]               0\n    DecoderBlock-145          [-1, 128, 32, 32]               0\n        Identity-146          [-1, 192, 64, 64]               0\n       Attention-147          [-1, 192, 64, 64]               0\n          Conv2d-148           [-1, 64, 64, 64]         110,592\n     BatchNorm2d-149           [-1, 64, 64, 64]             128\n            ReLU-150           [-1, 64, 64, 64]               0\n          Conv2d-151           [-1, 64, 64, 64]          36,864\n     BatchNorm2d-152           [-1, 64, 64, 64]             128\n            ReLU-153           [-1, 64, 64, 64]               0\n        Identity-154           [-1, 64, 64, 64]               0\n       Attention-155           [-1, 64, 64, 64]               0\n    DecoderBlock-156           [-1, 64, 64, 64]               0\n        Identity-157        [-1, 128, 128, 128]               0\n       Attention-158        [-1, 128, 128, 128]               0\n          Conv2d-159         [-1, 64, 128, 128]          73,728\n     BatchNorm2d-160         [-1, 64, 128, 128]             128\n            ReLU-161         [-1, 64, 128, 128]               0\n          Conv2d-162         [-1, 64, 128, 128]          36,864\n     BatchNorm2d-163         [-1, 64, 128, 128]             128\n            ReLU-164         [-1, 64, 128, 128]               0\n        Identity-165         [-1, 64, 128, 128]               0\n       Attention-166         [-1, 64, 128, 128]               0\n    DecoderBlock-167         [-1, 64, 128, 128]               0\n        Identity-168          [-1, 512, 32, 32]               0\n       Attention-169          [-1, 512, 32, 32]               0\n          Conv2d-170          [-1, 128, 32, 32]         589,824\n     BatchNorm2d-171          [-1, 128, 32, 32]             256\n            ReLU-172          [-1, 128, 32, 32]               0\n          Conv2d-173          [-1, 128, 32, 32]         147,456\n     BatchNorm2d-174          [-1, 128, 32, 32]             256\n            ReLU-175          [-1, 128, 32, 32]               0\n        Identity-176          [-1, 128, 32, 32]               0\n       Attention-177          [-1, 128, 32, 32]               0\n    DecoderBlock-178          [-1, 128, 32, 32]               0\n        Identity-179          [-1, 256, 64, 64]               0\n       Attention-180          [-1, 256, 64, 64]               0\n          Conv2d-181           [-1, 64, 64, 64]         147,456\n     BatchNorm2d-182           [-1, 64, 64, 64]             128\n            ReLU-183           [-1, 64, 64, 64]               0\n          Conv2d-184           [-1, 64, 64, 64]          36,864\n     BatchNorm2d-185           [-1, 64, 64, 64]             128\n            ReLU-186           [-1, 64, 64, 64]               0\n        Identity-187           [-1, 64, 64, 64]               0\n       Attention-188           [-1, 64, 64, 64]               0\n    DecoderBlock-189           [-1, 64, 64, 64]               0\n        Identity-190        [-1, 192, 128, 128]               0\n       Attention-191        [-1, 192, 128, 128]               0\n          Conv2d-192         [-1, 64, 128, 128]         110,592\n     BatchNorm2d-193         [-1, 64, 128, 128]             128\n            ReLU-194         [-1, 64, 128, 128]               0\n          Conv2d-195         [-1, 64, 128, 128]          36,864\n     BatchNorm2d-196         [-1, 64, 128, 128]             128\n            ReLU-197         [-1, 64, 128, 128]               0\n        Identity-198         [-1, 64, 128, 128]               0\n       Attention-199         [-1, 64, 128, 128]               0\n    DecoderBlock-200         [-1, 64, 128, 128]               0\n        Identity-201          [-1, 320, 64, 64]               0\n       Attention-202          [-1, 320, 64, 64]               0\n          Conv2d-203           [-1, 64, 64, 64]         184,320\n     BatchNorm2d-204           [-1, 64, 64, 64]             128\n            ReLU-205           [-1, 64, 64, 64]               0\n          Conv2d-206           [-1, 64, 64, 64]          36,864\n     BatchNorm2d-207           [-1, 64, 64, 64]             128\n            ReLU-208           [-1, 64, 64, 64]               0\n        Identity-209           [-1, 64, 64, 64]               0\n       Attention-210           [-1, 64, 64, 64]               0\n    DecoderBlock-211           [-1, 64, 64, 64]               0\n        Identity-212        [-1, 256, 128, 128]               0\n       Attention-213        [-1, 256, 128, 128]               0\n          Conv2d-214         [-1, 64, 128, 128]         147,456\n     BatchNorm2d-215         [-1, 64, 128, 128]             128\n            ReLU-216         [-1, 64, 128, 128]               0\n          Conv2d-217         [-1, 64, 128, 128]          36,864\n     BatchNorm2d-218         [-1, 64, 128, 128]             128\n            ReLU-219         [-1, 64, 128, 128]               0\n        Identity-220         [-1, 64, 128, 128]               0\n       Attention-221         [-1, 64, 128, 128]               0\n    DecoderBlock-222         [-1, 64, 128, 128]               0\n        Identity-223        [-1, 320, 128, 128]               0\n       Attention-224        [-1, 320, 128, 128]               0\n          Conv2d-225         [-1, 32, 128, 128]          92,160\n     BatchNorm2d-226         [-1, 32, 128, 128]              64\n            ReLU-227         [-1, 32, 128, 128]               0\n          Conv2d-228         [-1, 32, 128, 128]           9,216\n     BatchNorm2d-229         [-1, 32, 128, 128]              64\n            ReLU-230         [-1, 32, 128, 128]               0\n        Identity-231         [-1, 32, 128, 128]               0\n       Attention-232         [-1, 32, 128, 128]               0\n    DecoderBlock-233         [-1, 32, 128, 128]               0\n          Conv2d-234         [-1, 16, 256, 256]           4,608\n     BatchNorm2d-235         [-1, 16, 256, 256]              32\n            ReLU-236         [-1, 16, 256, 256]               0\n          Conv2d-237         [-1, 16, 256, 256]           2,304\n     BatchNorm2d-238         [-1, 16, 256, 256]              32\n            ReLU-239         [-1, 16, 256, 256]               0\n        Identity-240         [-1, 16, 256, 256]               0\n       Attention-241         [-1, 16, 256, 256]               0\n    DecoderBlock-242         [-1, 16, 256, 256]               0\nUnetPlusPlusDecoder-243         [-1, 16, 256, 256]               0\n          Conv2d-244          [-1, 3, 256, 256]             435\n        Identity-245          [-1, 3, 256, 256]               0\n        Identity-246          [-1, 3, 256, 256]               0\n      Activation-247          [-1, 3, 256, 256]               0\n================================================================\nTotal params: 26,078,899\nTrainable params: 26,078,899\nNon-trainable params: 0\n----------------------------------------------------------------\nInput size (MB): 0.75\nForward/backward pass size (MB): 829.25\nParams size (MB): 99.48\nEstimated Total Size (MB): 929.48\n-------------------------------------------------------------
…
