…
nsummary(model, (3, 256, 256))","metadata":{"trusted":true,"execution":{"iopub.status.busy":"2024-11-24T17:20:14.807177Z","iopub.execute_input":"2024-11-24T17:20:14.808054Z","iopub.status.idle":"2024-11-24T17:20:14.990819Z","shell.execute_reply.started":"2024-11-24T17:20:14.808016Z","shell.execute_reply":"2024-11-24T17:20:14.989940Z"}},"outputs":[{"name":"stdout","text":"----------------------------------------------------------------\n        Layer (type)               Output Shape         Param #\n================================================================\n            Conv2d-1         [-1, 64, 128, 128]           9,408\n       BatchNorm2d-2         [-1, 64, 128, 128]             128\n              ReLU-3         [-1, 64, 128, 128]               0\n         MaxPool2d-4           [-1, 64, 64, 64]               0\n            Conv2d-5           [-1, 64, 64, 64]           4,096\n       BatchNorm2d-6           [-1, 64, 64, 64]             128\n              ReLU-7           [-1, 64, 64, 64]               0\n            Conv2d-8           [-1, 64, 64, 64]          36,864\n       BatchNorm2d-9           [-1, 64, 64, 64]             128\n             ReLU-10           [-1, 64, 64, 64]               0\n           Conv2d-11          [-1, 256, 64, 64]          16,384\n      BatchNorm2d-12          [-1, 256, 64, 64]             512\n           Conv2d-13          [-1, 256, 64, 64]          16,384\n      BatchNorm2d-14          [-1, 256, 64, 64]             512\n             ReLU-15          [-1, 256, 64, 64]               0\n       Bottleneck-16          [-1, 256, 64, 64]               0\n           Conv2d-17           [-1, 64, 64, 64]          16,384\n      BatchNorm2d-18           [-1, 64, 64, 64]             128\n             ReLU-19           [-1, 64, 64, 64]               0\n           Conv2d-20           [-1, 64, 64, 64]          36,864\n      BatchNorm2d-21           [-1, 64, 64, 64]             128\n             ReLU-22           [-1, 64, 64, 64]               0\n           Conv2d-23          [-1, 256, 64, 64]          16,384\n      BatchNorm2d-24          [-1, 256, 64, 64]             512\n             ReLU-25          [-1, 256, 64, 64]               0\n       Bottleneck-26          [-1, 256, 64, 64]               0\n           Conv2d-27           [-1, 64, 64, 64]          16,384\n      BatchNorm2d-28           [-1, 64, 64, 64]             128\n             ReLU-29           [-1, 64, 64, 64]               0\n           Conv2d-30           [-1, 64, 64, 64]          36,864\n      BatchNorm2d-31           [-1, 64, 64, 64]             128\n             ReLU-32           [-1, 64, 64, 64]               0\n           Conv2d-33          [-1, 256, 64, 64]          16,384\n      BatchNorm2d-34          [-1, 256, 64, 64]             512\n             ReLU-35          [-1, 256, 64, 64]               0\n       Bottleneck-36          [-1, 256, 64, 64]               0\n           Conv2d-37          [-1, 128, 64, 64]          32,768\n      BatchNorm2d-38          [-1, 128, 64, 64]             256\n             ReLU-39          [-1, 128, 64, 64]               0\n           Conv2d-40          [-1, 128, 32, 32]         147,456\n      BatchNorm2d-41          [-1, 128, 32, 32]             256\n             ReLU-42          [-1, 128, 32, 32]               0\n           Conv2d-43          [-1, 512, 32, 32]          65,536\n      BatchNorm2d-44          [-1, 512, 32, 32]           1,024\n           Conv2d-45          [-1, 512, 32, 32]         131,072\n      BatchNorm2d-46          [-1, 512, 32, 32]           1,024\n             ReLU-47          [-1, 512, 32, 32]               0\n       Bottleneck-48          [-1, 512, 32, 32]               0\n           Conv2d-49          [-1, 128, 32, 32]          65,536\n      BatchNorm2d-50          [-1, 128, 32, 32]             256\n             ReLU-51          [-1, 128, 32, 32]               0\n           Conv2d-52          [-1, 128, 32, 32]         147,456\n      BatchNorm2d-53          [-1, 128, 32, 32]             256\n             ReLU-54          [-1, 128, 32, 32]               0\n           Conv2d-55          [-1, 512, 32, 32]          65,536\n      BatchNorm2d-56          [-1, 512, 32, 32]           1,024\n             ReLU-57          [-1, 512, 32, 32]               0\n       Bottleneck-58          [-1, 512, 32, 32]               0\n           Conv2d-59          [-1, 128, 32, 32]          65,536\n      BatchNorm2d-60          [-1, 128, 32, 32]             256\n             ReLU-61          [-1, 128, 32, 32]               0\n           Conv2d-62          [-1, 128, 32, 32]         147,456\n      BatchNorm2d-63          [-1, 128, 32, 32]             256\n             ReLU-64          [-1, 128, 32, 32]               0\n           Conv2d-65          [-1, 512, 32, 32]          65,536\n      BatchNorm2d-66          [-1, 512, 32, 32]           1,024\n             ReLU-67          [-1, 512, 32, 32]               0\n       Bottleneck-68          [-1, 512, 32, 32]               0\n           Conv2d-69          [-1, 128, 32, 32]          65,536\n      BatchNorm2d-70          [-1, 128, 32, 32]             256\n             ReLU-71          [-1, 128, 32, 32]               0\n           Conv2d-72          [-1, 128, 32, 32]         147,456\n      BatchNorm2d-73          [-1, 128, 32, 32]             256\n             ReLU-74          [-1, 128, 32, 32]               0\n           Conv2d-75          [-1, 512, 32, 32]          65,536\n      BatchNorm2d-76          [-1, 512, 32, 32]           1,024\n             ReLU-77          [-1, 512, 32, 32]               0\n       Bottleneck-78          [-1, 512, 32, 32]               0\n           Conv2d-79          [-1, 256, 32, 32]         131,072\n      BatchNorm2d-80          [-1, 256, 32, 32]             512\n             ReLU-81          [-1, 256, 32, 32]               0\n           Conv2d-82          [-1, 256, 16, 16]         589,824\n      BatchNorm2d-83          [-1, 256, 16, 16]             512\n             ReLU-84          [-1, 256, 16, 16]               0\n           Conv2d-85         [-1, 1024, 16, 16]         262,144\n      BatchNorm2d-86         [-1, 1024, 16, 16]           2,048\n           Conv2d-87         [-1, 1024, 16, 16]         524,288\n      BatchNorm2d-88         [-1, 1024, 16, 16]           2,048\n             ReLU-89         [-1, 1024, 16, 16]               0\n       Bottleneck-90         [-1, 1024, 16, 16]               0\n           Conv2d-91          [-1, 256, 16, 16]         262,144\n      BatchNorm2d-92          [-1, 256, 16, 16]             512\n             ReLU-93          [-1, 256, 16, 16]               0\n           Conv2d-94          [-1, 256, 16, 16]         589,824\n      BatchNorm2d-95          [-1, 256, 16, 16]             512\n             ReLU-96          [-1, 256, 16, 16]               0\n           Conv2d-97         [-1, 1024, 16, 16]         262,144\n      BatchNorm2d-98         [-1, 1024, 16, 16]           2,048\n             ReLU-99         [-1, 1024, 16, 16]               0\n      Bottleneck-100         [-1, 1024, 16, 16]               0\n          Conv2d-101          [-1, 256, 16, 16]         262,144\n     BatchNorm2d-102          [-1, 256, 16, 16]             512\n            ReLU-103          [-1, 256, 16, 16]               0\n          Conv2d-104          [-1, 256, 16, 16]         589,824\n     BatchNorm2d-105          [-1, 256, 16, 16]             512\n            ReLU-106          [-1, 256, 16, 16]               0\n          Conv2d-107         [-1, 1024, 16, 16]         262,144\n     BatchNorm2d-108         [-1, 1024, 16, 16]           2,048\n            ReLU-109         [-1, 1024, 16, 16]               0\n      Bottleneck-110         [-1, 1024, 16, 16]               0\n          Conv2d-111          [-1, 256, 16, 16]         262,144\n     BatchNorm2d-112          [-1, 256, 16, 16]             512\n            ReLU-113          [-1, 256, 16, 16]               0\n          Conv2d-114          [-1, 256, 16, 16]         589,824\n     BatchNorm2d-115          [-1, 256, 16, 16]             512\n            ReLU-116          [-1, 256, 16, 16]               0\n          Conv2d-117         [-1, 1024, 16, 16]         262,144\n     BatchNorm2d-118         [-1, 1024, 16, 16]           2,048\n            ReLU-119         [-1, 1024, 16, 16]               0\n      Bottleneck-120         [-1, 1024, 16, 16]               0\n          Conv2d-121          [-1, 256, 16, 16]         262,144\n     BatchNorm2d-122          [-1, 256, 16, 16]             512\n            ReLU-123          [-1, 256, 16, 16]               0\n          Conv2d-124          [-1, 256, 16, 16]         589,824\n     BatchNorm2d-125          [-1, 256, 16, 16]             512\n            ReLU-126          [-1, 256, 16, 16]               0\n          Conv2d-127         [-1, 1024, 16, 16]         262,144\n     BatchNorm2d-128         [-1, 1024, 16, 16]           2,048\n            ReLU-129         [-1, 1024, 16, 16]               0\n      Bottleneck-130         [-1, 1024, 16, 16]               0\n          Conv2d-131          [-1, 256, 16, 16]         262,144\n     BatchNorm2d-132          [-1, 256, 16, 16]             512\n            ReLU-133          [-1, 256, 16, 16]               0\n          Conv2d-134          [-1, 256, 16, 16]         589,824\n     BatchNorm2d-135          [-1, 256, 16, 16]             512\n            ReLU-136          [-1, 256, 16, 16]               0\n          Conv2d-137         [-1, 1024, 16, 16]         262,144\n     BatchNorm2d-138         [-1, 1024, 16, 16]           2,048\n            ReLU-139         [-1, 1024, 16, 16]               0\n      Bottleneck-140         [-1, 1024, 16, 16]               0\n          Conv2d-141          [-1, 512, 16, 16]         524,288\n     BatchNorm2d-142          [-1, 512, 16, 16]           1,024\n            ReLU-143          [-1, 512, 16, 16]               0\n          Conv2d-144            [-1, 512, 8, 8]       2,359,296\n     BatchNorm2d-145            [-1, 512, 8, 8]           1,024\n            ReLU-146            [-1, 512, 8, 8]               0\n          Conv2d-147           [-1, 2048, 8, 8]       1,048,576\n     BatchNorm2d-148           [-1, 2048, 8, 8]           4,096\n          Conv2d-149           [-1, 2048, 8, 8]       2,097,152\n     BatchNorm2d-150           [-1, 2048, 8, 8]           4,096\n            ReLU-151           [-1, 2048, 8, 8]               0\n      Bottleneck-152           [-1, 2048, 8, 8]               0\n          Conv2d-153            [-1, 512, 8, 8]       1,048,576\n     BatchNorm2d-154            [-1, 512, 8, 8]           1,024\n            ReLU-155            [-1, 512, 8, 8]               0\n          Conv2d-156            [-1, 512, 8, 8]       2,359,296\n     BatchNorm2d-157            [-1, 512, 8, 8]           1,024\n            ReLU-158            [-1, 512, 8, 8]               0\n          Conv2d-159           [-1, 2048, 8, 8]       1,048,576\n     BatchNorm2d-160           [-1, 2048, 8, 8]           4,096\n            ReLU-161           [-1, 2048, 8, 8]               0\n      Bottleneck-162           [-1, 2048, 8, 8]               0\n          Conv2d-163            [-1, 512, 8, 8]       1,048,576\n     BatchNorm2d-164            [-1, 512, 8, 8]           1,024\n            ReLU-165            [-1, 512, 8, 8]               0\n          Conv2d-166            [-1, 512, 8, 8]       2,359,296\n     BatchNorm2d-167            [-1, 512, 8, 8]           1,024\n            ReLU-168            [-1, 512, 8, 8]               0\n          Conv2d-169           [-1, 2048, 8, 8]       1,048,576\n     BatchNorm2d-170           [-1, 2048, 8, 8]           4,096\n            ReLU-171           [-1, 2048, 8, 8]               0\n      Bottleneck-172           [-1, 2048, 8, 8]               0\n   ResNetEncoder-173  [[-1, 3, 256, 256], [-1, 64, 128, 128], [-1, 256, 64, 64], [-1, 512, 32, 32], [-1, 1024, 16, 16], [-1, 2048, 8, 8]]               0\n        Identity-174         [-1, 3072, 16, 16]               0\n       Attention-175         [-1, 3072, 16, 16]               0\n          Conv2d-176          [-1, 256, 16, 16]       7,077,888\n     BatchNorm2d-177          [-1, 256, 16, 16]             512\n            ReLU-178          [-1, 256, 16, 16]               0\n          Conv2d-179          [-1, 256, 16, 16]         589,824\n     BatchNorm2d-180          [-1, 256, 16, 16]             512\n            ReLU-181          [-1, 256, 16, 16]               0\n        Identity-182          [-1, 256, 16, 16]               0\n       Attention-183          [-1, 256, 16, 16]               0\n    DecoderBlock-184          [-1, 256, 16, 16]               0\n        Identity-185         [-1, 1536, 32, 32]               0\n       Attention-186         [-1, 1536, 32, 32]               0\n          Conv2d-187          [-1, 512, 32, 32]       7,077,888\n     BatchNorm2d-188          [-1, 512, 32, 32]           1,024\n            ReLU-189          [-1, 512, 32, 32]               0\n          Conv2d-190          [-1, 512, 32, 32]       2,359,296\n     BatchNorm2d-191          [-1, 512, 32, 32]           1,024\n            ReLU-192          [-1, 512, 32, 32]               0\n        Identity-193          [-1, 512, 32, 32]               0\n       Attention-194          [-1, 512, 32, 32]               0\n    DecoderBlock-195          [-1, 512, 32, 32]               0\n        Identity-196          [-1, 768, 64, 64]               0\n       Attention-197          [-1, 768, 64, 64]               0\n          Conv2d-198          [-1, 256, 64, 64]       1,769,472\n     BatchNorm2d-199          [-1, 256, 64, 64]             512\n            ReLU-200          [-1, 256, 64, 64]               0\n          Conv2d-201          [-1, 256, 64, 64]         589,824\n     BatchNorm2d-202          [-1, 256, 64, 64]             512\n            ReLU-203          [-1, 256, 64, 64]               0\n        Identity-204          [-1, 256, 64, 64]               0\n       Attention-205          [-1, 256, 64, 64]               0\n    DecoderBlock-206          [-1, 256, 64, 64]               0\n        Identity-207        [-1, 320, 128, 128]               0\n       Attention-208        [-1, 320, 128, 128]               0\n          Conv2d-209         [-1, 64, 128, 128]         184,320\n     BatchNorm2d-210         [-1, 64, 128, 128]             128\n            ReLU-211         [-1, 64, 128, 128]               0\n          Conv2d-212         [-1, 64, 128, 128]          36,864\n     BatchNorm2d-213         [-1, 64, 128, 128]             128\n            ReLU-214         [-1, 64, 128, 128]               0\n        Identity-215         [-1, 64, 128, 128]               0\n       Attention-216         [-1, 64, 128, 128]               0\n    DecoderBlock-217         [-1, 64, 128, 128]               0\n        Identity-218         [-1, 1280, 32, 32]               0\n       Attention-219         [-1, 1280, 32, 32]               0\n          Conv2d-220          [-1, 128, 32, 32]       1,474,560\n     BatchNorm2d-221          [-1, 128, 32, 32]             256\n            ReLU-222          [-1, 128, 32, 32]               0\n          Conv2d-223          [-1, 128, 32, 32]         147,456\n     BatchNorm2d-224          [-1, 128, 32, 32]             256\n            ReLU-225          [-1, 128, 32, 32]               0\n        Identity-226          [-1, 128, 32, 32]               0\n       Attention-227          [-1, 128, 32, 32]               0\n    DecoderBlock-228          [-1, 128, 32, 32]               0\n        Identity-229         [-1, 1024, 64, 64]               0\n       Attention-230         [-1, 1024, 64, 64]               0\n          Conv2d-231          [-1, 256, 64, 64]       2,359,296\n     BatchNorm2d-232          [-1, 256, 64, 64]             512\n            ReLU-233          [-1, 256, 64, 64]               0\n          Conv2d-234          [-1, 256, 64, 64]         589,824\n     BatchNorm2d-235          [-1, 256, 64, 64]             512\n            ReLU-236          [-1, 256, 64, 64]               0\n        Identity-237          [-1, 256, 64, 64]               0\n       Attention-238          [-1, 256, 64, 64]               0\n    DecoderBlock-239          [-1, 256, 64, 64]               0\n        Identity-240        [-1, 384, 128, 128]               0\n       Attention-241        [-1, 384, 128, 128]               0\n          Conv2d-242         [-1, 64, 128, 128]         221,184\n     BatchNorm2d-243         [-1, 64, 128, 128]             128\n            ReLU-244         [-1, 64, 128, 128]               0\n          Conv2d-245         [-1, 64, 128, 128]          36,864\n     BatchNorm2d-246         [-1, 64, 128, 128]             128\n            ReLU-247         [-1, 64, 128, 128]               0\n        Identity-248         [-1, 64, 128, 128]               0\n       Attention-249         [-1, 64, 128, 128]               0\n    DecoderBlock-250         [-1, 64, 128, 128]               0\n        Identity-251          [-1, 896, 64, 64]               0\n       Attention-252          [-1, 896, 64, 64]               0\n          Conv2d-253           [-1, 64, 64, 64]         516,096\n     BatchNorm2d-254           [-1, 64, 64, 64]             128\n            ReLU-255           [-1, 64, 64, 64]               0\n          Conv2d-256           [-1, 64, 64, 64]          36,864\n     BatchNorm2d-257           [-1, 64, 64, 64]             128\n            ReLU-258           [-1, 64, 64, 64]               0\n        Identity-259           [-1, 64, 64, 64]               0\n       Attention-260           [-1, 64, 64, 64]               0\n    DecoderBlock-261           [-1, 64, 64, 64]               0\n        Identity-262        [-1, 448, 128, 128]               0\n       Attention-263        [-1, 448, 128, 128]               0\n          Conv2d-264         [-1, 64, 128, 128]         258,048\n     BatchNorm2d-265         [-1, 64, 128, 128]             128\n            ReLU-266         [-1, 64, 128, 128]               0\n          Conv2d-267         [-1, 64, 128, 128]          36,864\n     BatchNorm2d-268         [-1, 64, 128, 128]             128\n            ReLU-269         [-1, 64, 128, 128]               0\n        Identity-270         [-1, 64, 128, 128]               0\n       Attention-271         [-1, 64, 128, 128]               0\n    DecoderBlock-272         [-1, 64, 128, 128]               0\n        Identity-273        [-1, 320, 128, 128]               0\n       Attention-274        [-1, 320, 128, 128]               0\n          Conv2d-275         [-1, 32, 128, 128]          92,160\n     BatchNorm2d-276         [-1, 32, 128, 128]              64\n            ReLU-277         [-1, 32, 128, 128]               0\n          Conv2d-278         [-1, 32, 128, 128]           9,216\n     BatchNorm2d-279         [-1, 32, 128, 128]              64\n            ReLU-280         [-1, 32, 128, 128]               0\n        Identity-281         [-1, 32, 128, 128]               0\n       Attention-282         [-1, 32, 128, 128]               0\n    DecoderBlock-283         [-1, 32, 128, 128]               0\n          Conv2d-284         [-1, 16, 256, 256]           4,608\n     BatchNorm2d-285         [-1, 16, 256, 256]              32\n            ReLU-286         [-1, 16, 256, 256]               0\n          Conv2d-287         [-1, 16, 256, 256]           2,304\n     BatchNorm2d-288         [-1, 16, 256, 256]              32\n            ReLU-289         [-1, 16, 256, 256]               0\n        Identity-290         [-1, 16, 256, 256]               0\n       Attention-291         [-1, 16, 256, 256]               0\n    DecoderBlock-292         [-1, 16, 256, 256]               0\nUnetPlusPlusDecoder-293         [-1, 16, 256, 256]               0\n          Conv2d-294          [-1, 3, 256, 256]             435\n        Identity-295          [-1, 3, 256, 256]               0\n        Identity-296          [-1, 3, 256, 256]               0\n      Activation-297          [-1, 3, 256, 256]               0\n================================================================\nTotal params: 48,986,035\nTrainable params: 48,986,035\nNon-trainable params: 0\n----------------------------------------------------------------\nInput size (MB): 0.75\nForward/backward pass size (MB): 1515.75\nParams size (MB): 186.87\nEstimated Total Size (MB): 1703.37\n----------------------------------------------------------
…
